…
4.1 Preprocesamiento
· Normalización: se aplicó StandardScaler de scikit-learn a cada una de las tres características, utilizando todos los pasos temporales (1000×10 = 30000 muestras) para obtener media 0 y desviación estándar 1.
· División: 80% entrenamiento, 20% prueba, con estratificación para mantener proporción de clases.
4.2 Arquitectura LSTM elegida
Model: "sequential"
_________________________________________________________________
 Layer (type)                Output Shape              Param #   
=================================================================
 lstm (LSTM)                 (None, 64)                17408     
 dropout (Dropout)           (None, 64)                0         
 dense (Dense)               (None, 32)                2080      
 dropout_1 (Dropout)         (None, 32)                0         
 dense_1 (Dense)             (None, 1)                 33        
=================================================================
Total params: 19,521
Trainable params: 19,521
```

· Entrada: (timesteps=10, features=3)
· Capa LSTM: 64 unidades, return_sequences=False (solo la última salida se envía a las siguientes capas). Activación tanh por defecto.
· Dropout(0.2): regularización para evitar sobreajuste.
· Capa densa intermedia: 32 neuronas con activación ReLU.
…
